model/AIGCNs.pt (torch, 652050 bytes, 52 tensors)

CNN_denoise_branch.CNNDenoise1.BN.weight f4 [200]
00000000: d6b3 803f fd38 803f 1b99 803f 07b5 813f
00000010: 416b 803f a822 803f 0001 7e3f d6ea 7f3f
00000020: 7781 7f3f 4da4 7f3f 3b34 803f 7589 7f3f
00000030: 3e79 803f 5e27 7f3f 1e71 803f 9e19 803f
00000040: 7267 803f 79e2 7f3f ca2f 803f d12f 803f
00000050: b3f3 7e3f ebc9 7f3f 61d9 7e3f d561 803f
00000060: e3fc 7f3f d9fe 803f bb14 803f 56ab 803f
00000070: 8005 803f 7473 803f e541 803f ba98 803f
00000080: 251b 803f 4e89 7f3f f476 7f3f 98fe 7f3f
00000090: a7fa 7e3f 805f 803f 5a19 813f 34fe 803f
000000a0: fc7c 803f 0552 803f de5c 7e3f bdef 7f3f
000000b0: bf44 7e3f 0bfe 7e3f 0c52 803f 15e5 7f3f
000000c0: a16c 7f3f 15f9 7f3f e1b6 803f 47b6 7f3f
000000d0: 2d29 7f3f 357f 7f3f b05e 803f c8e7 7f3f
000000e0: e450 7f3f a682 7f3f d05c 803f b1af 7f3f
000000f0: 3fe6 7e3f a4a1 803f dc2c 7f3f 5059 803f
00000100: 7369 7f3f b70b 7f3f 59e6 7d3f 3433 803f
00000110: a417 813f 7c62 7f3f 8f90 7e3f 7505 813f
00000120: 200f 803f ef82 7f3f 5513 7f3f c501 803f
00000130: 2737 803f 166f 7f3f aa24 7f3f 745d 7f3f
00000140: 451b 803f db14 7f3f b50e 803f 5cdb 7e3f
00000150: 310b 7f3f e41e 7f3f 6322 7e3f 2114 813f
00000160: 9f90 803f b694 7d3f 8f95 7d3f 0a53 7e3f
00000170: 9a35 803f 295a 803f d630 7f3f 6183 803f
00000180: e6b2 803f 6e0b 803f be52 803f 3e3b 7f3f
00000190: 4993 7f3f 7a19 7f3f 0e96 7f3f e5d0 7f3f
000001a0: 52f4 7f3f 4355 803f f666 803f 8a3e 803f
000001b0: ec38 803f eba4 7f3f 4623 803f 8c06 803f
000001c0: dd98 7f3f 1ae9 7f3f 6000 803f 4619 803f
000001d0: 08f6 7f3f fbc2 7f3f 6381 7f3f bd18 7f3f
000001e0: dab4 7f3f 8c53 7f3f e921 803f fba1 7f3f
000001f0: 924b 803f 97b7 7e3f 0c82 7f3f 7f6a 7f3f
00000200: 203b 803f b023 803f 2158 7f3f 675a 7f3f
00000210: cb5f 803f ca9c 7f3f 0365 803f de13 7f3f
00000220: 5b4b 803f 4f33 803f 78b2 7f3f d7dd 7f3f
00000230: d721 803f 1a1f 803f 8072 803f b490 803f
00000240: 37db 7f3f 1faf 7f3f 8e9d 803f 1e52 7f3f
00000250: c1f6 7f3f 80b5 803f 1caa 7e3f 9ea4 7f3f
00000260: 82e2 7f3f 7d31 803f 9df3 7d3f 1b19 7f3f
00000270: b90d 803f 29fe 7f3f 14e3 7f3f 9bb7 7f3f
00000280: 6bbc 7f3f 705d 803f 2fe7 7f3f 1b73 803f
00000290: d381 7f3f f22a 803f c273 7f3f 7883 7f3f
000002a0: abc2 7e3f 93ab 803f 3c9e 803f 0328 803f
000002b0: a2f5 7f3f fca3 803f 670a 803f 689a 7f3f
000002c0: d8e5 7d3f cafa 803f f3d3 803f 291b 803f
000002d0: c709 803f 1f3c 7f3f 7771 7f3f 0846 803f
000002e0: 7c07 803f 08f0 7f3f 55be 7f3f e53e 803f
000002f0: aae6 7f3f 8aec 7f3f c922 803f a767 7f3f
00000300: 8a72 803f 5738 803f a308 803f a131 803f
00000310: adba 7f3f 0052 803f 4d03 803f 720e 813f
1.0054882 1.0017391 1.0046724 1.013337 1.0032731 1.0010576 0.99220276 0.99967706
0.9980692 0.9986008 1.001594 0.9981912 1.0037 0.99669445 1.0034521 1.0007818
1.0031569 0.99954945 1.0014584 1.0014592 0.99590605 0.9991748 0.99550444 1.0029856
0.9999525 1.0077773 1.0006326 1.0052288 1.0001678 1.0035233 1.002011 1.0046608
1.0008284 0.99818885 0.99790883 0.99997854 0.99601215 1.0029144 1.0085862 1.0077577
1.0038142 1.002503 0.99360454 0.99975187 0.9932365 0.9960639 1.0025039 0.99958926
0.9977513 0.99989444 1.005581 0.9988751 0.99672204 0.9980348 1.0028896 0.99963045
0.99732804 0.9980873 1.0028324 0.9987746 0.9957008 1.0049329 0.99677825 1.0027256
0.9977028 0.9962725 0.9917961 1.0015626 1.008534 0.9975965 0.9943933 1.007979
1.0004616 0.99809164 0.99638873 1.000054 1.0016831 0.9977888 0.9966532 0.99751973
1.0008322 0.996412 1.0004488 0.99553466 0.9962645 0.9965651 0.9927122 1.0084268
1.0044135 0.9905504 0.99056333 0.9934546 1.0016358 1.0027515 0.9968389 1.0040094
1.0054595 1.0003488 1.0025251 0.9969977 0.99834114 0.9964825 0.9983834 0.9992812
0.9998218 1.002602 1.0031421 1.0019085 1.0017371 0.9986102 1.0010765 1.0001998
0.99842626 0.9996506 1.0000114 1.0007713 0.9998479 0.9990689 0.99806803 0.9964712
0.9988533 0.9973686 1.0010349 0.9985654 1.0023062 0.99498886 0.9980781 0.99771875
1.0018044 1.0010891 0.9974385 0.9974732 1.0029234 0.99848616 1.0030826 0.9963969
1.0022997 1.0015658 0.99881697 0.99947876 1.0010327 1.0009491 1.0034943 1.004416
0.9994387 0.9987659 1.0048082 0.99734676 0.9998589 1.005539 0.99478316 0.9986056
0.99955 1.0015103 0.9919985 0.9964768 1.0004188 0.9999719 0.9995587 0.99889535
0.9989688 1.0028515 0.99962133 1.0035127 0.9980747 1.0013106 0.9978601 0.9980998
0.9951579 1.005236 1.0048289 1.0012211 0.9998418 1.0050044 1.0003175 0.9984498
0.9917884 1.0076535 1.0064682 1.0008289 1.0002984 0.9970111 0.9978251 1.0021372
1.0002284 0.99975634 0.998998 1.0019194 0.9996134 0.99970305 1.0010616 0.99767536
1.0034955 1.0017194 1.0002636 1.0015146 0.9989422 1.0025024 1.0001007 1.0082533

CNN_denoise_branch.CNNDenoise1.BN.bias f4 [200]
00000000: dbb9 9538 4d28 953b aaad cc3b a057 3b3c
00000010: b34f c33a 5313 f539 01eb 90bb bbc6 3bbc
00000020: 0fc4 9938 306e db3b ceed 69bb b8ea e7bb
00000030: 9316 b7bb 4bf3 c4bb 2329 84bb 5269 aabb
00000040: 616b 66bb 3baf 2c3b 658a 543c 9383 43ba
00000050: cfac b83b 5be6 36bb a20f 143c 5c33 213b
00000060: c3b7 f9ba 1889 363c ee45 8cbb 66c1 04bc
00000070: 0e0f 593c 0ada 7fbb 7266 e1bb 2d37 1f3c
00000080: 9183 13bc 1803 59bb efbc 0a3c c865 4abb
00000090: 7819 1e3c e1dc 123b 9632 a4ba dd3e caba
000000a0: 465b 05ba 23ff baba 3f6b dd3b 4789 e7ba
000000b0: 38d5 d03b 0f66 ed3b 2a3f 383b 4276 e83b
000000c0: 359e 03bc 9f4d 16bb dbc9 e4ba e5a7 023c
000000d0: 54cf 4cbb 2357 0ebc f75d 063c f65a 34bc
000000e0: 45b3 f5ba d1c2 6b3b a5b3 093b fbf5 083c
000000f0: 05b1 a2bb d10c e73a 3f11 2dbc cd83 cf3a
00000100: 175e 6d3b 673a 50bc a65a ae3b 099c 673b
00000110: e502 feba 296d 6b39 a1a5 81bb 5f39 883c
00000120: ef1c c73a b902 f83b ff38 643c 8ed8 763b
00000130: dc70 e53b 4ccb 9b39 7109 e7bb a340 bcba
00000140: 151d 56ba a73a cb3b 5c52 bfbb 9943 a8bb
00000150: 865c 42bc 37fb caba 0603 883a 8767 063a
00000160: 6f5a 333c 0e9b 0cbc f51e 56bb fa22 1cbc
00000170: 8a19 b13b 54a2 4cbc 9a90 d93b 28b5 7f3c
00000180: b423 2fb9 592c b1bb ab8d d83a b7db 54ba
00000190: 7e38 25bb 6767 88bb 460b 8ebc b01b bfb9
000001a0: 1615 d8ba 6f71 74bb 7ef5 d6ba d2cd f2bb
000001b0: 7547 14bc 41a0 11bc af4c c6ba fbe4 9abc
000001c0: 5745 56bb 8de0 26bc bafc edbb 16db 28bc
000001d0: 361e 863a eab3 67bc 8d92 edba 124b d7bb
000001e0: 82ed a13a 03b8 983a cae9 7abb 7ec5 213b
000001f0: f9f8 fabb 0fea 4dbc 8f76 90bb d822 5b3b
00000200: 1d63 2a3b 67bb 0f3c 0a23 e73b 9a44 753a
00000210: 2ca5 22bc 5b30 80bb e4c6 f33a 0293 6fbb
00000220: 42b1 0d3c 6b3a a0bb d4cd fb38 bb13 083b
00000230: 71ad 03b9 759b dfba f02e 873b d6ce dab9
00000240: 9f78 3d3b ad37 6f3a b240 61bc 66de a43a
00000250: b52e 13bb 53dd c63b b3f0 0fbc 993c 47bc
00000260: 948a 6dbc ac1b 3abc bb07 543a bcce d9ba
00000270: fa1a 57bb 8787 2cbb 2969 3abc d7e3 893a
00000280: c564 d93a 20aa 1abc ca4d ed3b 55f7 d9bb
00000290: 5a36 343a 2d67 06bc 210b 2abc 2625 2fbb
000002a0: d222 ad3b 2ebc d439 9bc0 86ba 1f50 19bb
000002b0: b4d8 3c3c 2c65 083c 5634 bfbb cd0c 4ebc
000002c0: 7707 f9ba fc78 c3ba 6325 15bc a36b 233c
000002d0: 2da0 d4bb 65bc 11bc b502 8b39 6233 67bb
000002e0: 1783 8a3b 4668 71ba 89b0 80bc 5c1f 6ebb
000002f0: 7c53 a9bb 712f aa3b 850b d5bb cf3f 6cbb
00000300: 6c44 5abc e7f5 6ebb ded0 c63b 8790 67bc
00000310: 1f11 b339 0b0d 9c3b 8565 843b f866 82bb
7.139492e-05 0.0045519234 0.0062462883 0.011434466 0.0014901072 0.0004674444 -0.004422546 -0.011460955
7.332127e-05 0.006696485 -0.003569472 -0.007077541 -0.005587408 -0.006010448 -0.004033224 -0.0052005434
-0.0035159218 0.0026349563 0.012972449 -0.0007458266 0.0056358348 -0.0027908299 0.00903693 0.0024597263
-0.0019051958 0.011141084 -0.004280797 -0.00810275 0.013248218 -0.0039039874 -0.0068786675 0.009717745
-0.009003536 -0.0033113416 0.008467897 -0.003088342 0.009649627 0.0022409486 -0.0012527283 -0.0015430112
-0.0005087148 -0.001426671 0.0067571695 -0.0017664813 0.006373074 0.0072448323 0.002811382 0.0070941756
-0.008033325 -0.002293445 -0.0017455177 0.0079745995 -0.0031251507 -0.008687767 0.008201114 -0.011008015
-0.0018745443 0.0035974274 0.0021011618 0.008359428 -0.00496495 0.0017627721 -0.010563194 0.0015832126
0.0036219412 -0.012709237 0.0053208647 0.0035340807 -0.0019379525 0.00022452012 -0.003956512 0.01662892
0.0015191118 0.007568684 0.013929605 0.0037665698 0.0070019793 0.00029715372 -0.007050686 -0.0014362525
-0.00081677857 0.0062020603 -0.0058386754 -0.0051350114 -0.01186288 -0.0015486245 0.0010376878 0.0005127121
0.010946854 -0.00858189 -0.003267226 -0.009529823 0.005404656 -0.012489874 0.0066395523 0.015607156
-0.00016702601 -0.005406898 0.0016521713 -0.0008119898 -0.0025210674 -0.004162717 -0.01733936 -0.00036450988
-0.0016485776 -0.0037299057 -0.0016400067 -0.0074097896 -0.00905024 -0.008888305 -0.0015129055 -0.018908015
-0.0032695138 -0.010185373 -0.0072627934 -0.01030614 0.0010232392 -0.014142016 -0.001812534 -0.0065702284
0.0012354108 0.001165152 -0.0038286322 0.0024684365 -0.0076590744 -0.012568011 -0.0044086645 0.0033437517
0.0025999018 0.008772708 0.0070537375 0.0009356231 -0.009927075 -0.0039120144 0.0018598703 -0.003655613
0.008648219 -0.0048897765 0.00012006951 0.0020763713 -0.00012557746 -0.001705988 0.0041254684 -0.00041734305
0.0028911007 0.0009125423 -0.013748335 0.0012578487 -0.002245826 0.0060688644 -0.0087854145 -0.012160444
-0.014498372 -0.011359137 0.000808831 -0.0016617398 -0.0032822476 -0.0026325898 -0.011377611 0.0010520172
0.0016585818 -0.009439975 0.007241939 -0.0066517987 0.0006874554 -0.00820331 -0.01037863 -0.0026725023
0.005283692 0.00040575996 -0.001028079 -0.0023393703 0.011526275 0.0083249025 -0.0058350964 -0.012576294
-0.0018999417 -0.0014913375 -0.009103152 0.009974393 -0.006488821 -0.008895014 0.00026514163 -0.003527843
0.004227053 -0.00092089584 -0.015709179 -0.003633461 -0.005167423 0.0051936437 -0.0065016174 -0.0036048775
-0.013321977 -0.0036462487 0.0060673794 -0.014133579 0.00034154297 0.004762297 0.0040404224 -0.00397956

CNN_denoise_branch.CNNDenoise1.BN.running_mean f4 [200]
00000000: 7411 6d3e 3ca9 b93e b5ae c43e ea50 be3e
00000010: 4cd7 d23e 5c0e e33e 1c79 e63e b390 de3e
00000020: 35da db3e 1e3f ce3e 185c cc3e f175 c63e
00000030: 2f0a bd3e 4af6 cb3e 6f22 d03e 21c2 ce3e
00000040: 8c30 c53e 926b b83e 2452 b23e 4c0a ac3e
00000050: bf68 aa3e 4807 a93e a6fe a43e 96fd 9f3e
00000060: 8ba0 9f3e a957 9a3e fde3 933e 1e02 963e
00000070: 60a4 943e 62e7 873e 61ee 963e f957 863e
00000080: e956 973e cd35 b13e d688 be3e 6b99 ce3e
00000090: dfe4 003f 8adf 133f b279 133f e066 bc3e
000000a0: ab17 183f 49a2 1b3f 32f8 133f 0609 123f
000000b0: c6b7 053f eb5f f03e e634 013f f8db 0d3f
000000c0: 1990 0b3f 52d7 0b3f 7ecd 093f 2ac2 0a3f
000000d0: 3e6f 073f fecd d43e b8fd c73e e4cc c13e
000000e0: b184 a03e 1519 223e 1e32 343e 3e08 4f3e
000000f0: 9d52 853e 7c28 b43e ae8f d23e 83f4 e33e
00000100: bf50 de3e e0b1 df3e 3b66 dc3e 7653 db3e
00000110: 4ec1 d83e 9092 d63e 774e ce3e 703f c93e
00000120: f4eb c33e d744 b83e 5ada 8f3e 9f94 673e
00000130: 7a4f c43d dbab 9b3d d6ba db3d 1b6e c43d
00000140: 7e9f 1d3e 1e60 603e b44a 6c3e f95b 6a3e
00000150: 4cc6 6f3e 8287 6d3e 9f94 723e 6ffc 723e
00000160: 7f83 733e 396b 723e 9559 733e 6358 5b3e
00000170: 0b98 623e c1ef 6e3e e7bd 5b3e 9cdb 6c3e
00000180: ed29 6b3e 3cbc 573e ad95 343e 6839 1a3e
00000190: dab4 cd3d d260 893d deae 7b3c 51d3 193c
000001a0: 257c 3e3c 1083 6a3c 17d3 843c 5a38 d63c
000001b0: 3aef 093d 75c9 e13c c1c3 143d 69d5 6e3d
000001c0: 39f1 a03d ac51 bf3d da5b d63d 2206 e33d
000001d0: f06c eb3d 156e ef3d 85cd ee3d 2be4 db3d
000001e0: 5c90 df3d e5c6 e73d 9c52 e13d e4b1 e03d
000001f0: 3b43 ec3d 0db3 ec3d a637 e23d 6ab4 de3d
00000200: e331 de3d 0b4b d63d 1b78 d23d 4938 ca3d
00000210: c654 c13d ae0c b73d 7679 af3d 5d14 a13d
00000220: d9b7 963d 4d00 903d 3d62 853d 6832 623d
00000230: 3d86 2d3d 5e9d 023d 67a0 903c f88c 1e3c
00000240: a040 f13b fccf 093c 96ab 523c cbcc ad3c
00000250: 0a2f de3c 8937 be3c 175c 4e3c 143b 543c
00000260: b2aa b33c 1f87 fc3c 041b f63c dfde c53c
00000270: 43a7 c53c 7ca9 e33c 725f 053d 8dfe 0a3d
00000280: 2c12 0e3d 918c 0d3d d668 0d3d e5c6 0d3d
00000290: 1146 0b3d c647 043d b151 013d 5ba4 003d
000002a0: aeeb fd3c a069 f83c c9e8 f23c adcf fd3c
000002b0: a185 fc3c 1606 f33c 6d9c e73c f4a8 d93c
000002c0: e51d d03c 6f23 c83c 25e4 c33c 0c49 b83c
000002d0: 7ce1 b63c 8d74 b23c 79fc a73c d949 a73c
000002e0: 6386 953c 0c72 8c3c 2685 8e3c 9774 7d3c
000002f0: 399c 6d3c fb83 6e3c 967b 6b3c df8d 4a3c
00000300: f04c 473c 091c 4d3c 120d 343c a865 213c
00000310: 8866 273c 2b71 0e3c 5b7b e53b 07be ca3b
0.23151189 0.36261928 0.3841454 0.37171108 0.41179883 0.44346893 0.45014274 0.43469772
0.42939916 0.4028253 0.39914012 0.38761857 0.36921832 0.3983634 0.4065127 0.40382484
0.385136 0.3601957 0.34828293 0.33601606 0.3328304 0.33013368 0.3222553 0.31248158
0.31177172 0.30145004 0.2888488 0.2929849 0.29031658 0.2654372 0.29478744 0.26238993
0.29558495 0.3461136 0.37213773 0.40351424 0.5034923 0.5776297 0.5760757 0.36797237
0.59411114 0.607945 0.5780059 0.5704502 0.5223354 0.4694818 0.5047134 0.5541377
0.5451675 0.5462543 0.5382918 0.5420252 0.5290412 0.4156341 0.3906076 0.37851632
0.31351236 0.1582988 0.17597243 0.20217988 0.2603959 0.35187137 0.41125244 0.44522485
0.4342098 0.43690395 0.43046746 0.42837113 0.4233498 0.41908693 0.4029424 0.3930621
0.38265955 0.3599002 0.28096277 0.22615288 0.095854715 0.07601138 0.107289955 0.095913135
0.15392873 0.21911666 0.23075372 0.22886647 0.23415488 0.23196223 0.23689507 0.23729108
0.2378063 0.23673715 0.23764642 0.21420436 0.22128312 0.23333646 0.21459161 0.2313065
0.22965212 0.210679 0.17635222 0.15060961 0.1004426 0.0670792 0.015361516 0.009388761
0.011626278 0.014313474 0.016213937 0.026149917 0.03367541 0.027561883 0.036319498 0.058308993
0.078585096 0.093417495 0.10466738 0.11085154 0.114953876 0.11690918 0.116602935 0.10736879
0.10916206 0.11317233 0.110020846 0.1097143 0.11536261 0.11557589 0.1104577 0.10874255
0.10849359 0.10463532 0.102768146 0.09874017 0.094399974 0.08937965 0.08568089 0.07865212
0.07359285 0.07031307 0.06512878 0.055223852 0.042364348 0.03188836 0.01765461 0.009677164
0.00736244 0.008411404 0.012858292 0.021215817 0.02712204 0.02321984 0.012595198 0.012953538
0.02193198 0.03082615 0.030042179 0.024154125 0.024127608 0.027790777 0.032561727 0.033934165
0.0346853 0.034557883 0.034523807 0.03461351 0.034002367 0.03229501 0.031572048 0.03140674
0.03099617 0.030323803 0.029652016 0.030982817 0.030825438 0.029665988 0.028272832 0.026569821
0.02540488 0.024430959 0.023912499 0.022495769 0.022324316 0.021784091 0.02050613 0.020420955
0.018252557 0.017144226 0.017397474 0.015469692 0.014502578 0.014557834 0.014372727 0.012362926
0.012164339 0.012518891 0.010989444 0.009850897 0.010217316 0.0086939735 0.0070032305 0.006187204

CNN_denoise_branch.CNNDenoise1.BN.running_var f4 [200]
00000000: c5ce dd3a 6c31 3c3a a922 6b3a c535 8b3a
00000010: e7e5 d23a fcfa 163b 1b74 413b 4061 543b
00000020: 19a6 793b b6ec 7f3b eef8 9b3b fa67 c73b
00000030: ec71 fc3b 4f61 b43b 259c b03b f5b0 c43b
00000040: 4fa4 053c 7d22 1f3c be05 1f3c 72ec 223c
00000050: a494 283c 3ee8 323c 90ff 363c 1e7e 383c
00000060: 2533 453c 03cc 4b3c d2f2 483c f1c3 633c
00000070: 3342 6a3c 1211 3a3c 5828 2d3c 167e 353c
00000080: c5bd 303c 6a86 1f3c 2ffd bb3b 3db4 0d3b
00000090: efcb 613b 4ff7 e33b 6fd6 0e3c d244 b63b
000000a0: b378 2b3c 8487 343c adea 1f3c 3508 1a3c
000000b0: bf28 fe3b 6adf cd3b 427c e63b 5b8b 083c
000000c0: 594f 043c 92de 023c b57c fb3b a420 fa3b
000000d0: fcc5 e83b 922f a13b 0351 993b 15bd 933b
000000e0: c847 a23b b158 e839 a12f 083a 7a0a 213a
000000f0: 1166 523b 2ce6 4e3b 70fe 4b3b 0421 573b
00000100: ff21 5d3b ad40 633b e602 6b3b c244 733b
00000110: bbb7 773b bcc5 7a3b 51f6 743b 8428 6c3b
00000120: efae 673b 3900 6b3b 1fe4 913b eae0 353a
00000130: 936c 0339 6e5d 9538 4106 0839 3cc9 c738
00000140: 6f44 8239 14c2 043a 01d6 0e3a bfba 0f3a
00000150: 945b 203a 8ded 193a c3e4 3a3a 31cc 823a
00000160: d24e b33a d96c ab3a 484b 503a 4458 043a
00000170: d8b9 0b3a d814 223a 5428 063a a204 163a
00000180: 9053 163a ef89 093a 6ac6 d839 f39f b539
00000190: 070d 4b39 7442 d738 ed1d 4337 7790 2437
000001a0: 28b6 5937 143a af37 8c5d e837 cf83 d438
000001b0: ff81 4a39 69dc e238 e05c 5a39 0b5d 173a
000001c0: e53b 8b3a 264f ba3a b0c1 db3a 901c e83a
000001d0: b715 ea3a d17f e23a a744 d23a ff6c a83a
000001e0: 6279 a43a b0c9 a83a 766c 963a beaa 8f3a
000001f0: bc3f 993a 07e7 943a 5901 843a 5bf7 7b3a
00000200: 9b6c 793a b885 673a 87b5 603a 53df 553a
00000210: 478e 493a b93a 3c3a 123d 323a a4f2 1b3a
00000220: 581d 0c3a ba8a 063a 0500 f139 b42f ac39
00000230: 6bf1 4a39 d747 d338 bd72 ed37 599a 2c37
00000240: cd6a 2737 f1d1 4c37 d731 0938 5f61 f638
00000250: 226b 6039 5121 1839 9d5f f137 0f24 0038
00000260: ae63 ea38 2a67 8439 5f7a 6f39 aeb5 0f39
00000270: dce7 0939 de92 3e39 a64b 8739 b248 9339
00000280: 2e7b 9539 493b 9039 3000 8d39 5975 8c39
00000290: 0408 8539 76b7 6739 1bb7 5639 5314 4e39
000002a0: f90c 4639 9738 3539 a175 2b39 2810 3939
000002b0: bf02 3d39 41ab 2e39 29a0 2039 1d84 0c39
000002c0: 5f28 0739 17a1 ff38 b407 f738 c3bd dc38
000002d0: 6c47 dc38 b383 d838 58a2 b938 529a b838
000002e0: b982 9438 2985 8238 302d 8338 34f5 4738
000002f0: 5299 2938 1a47 3238 87d1 2e38 b71e ef37
00000300: aff9 ed37 a37e 0538 1269 c937 9863 9437
00000310: 8c77 a937 3e7b 6d37 5deb 2837 edfd 1637
0.0016922584 0.00071789953 0.00089697033 0.0010620883 0.0016090245 0.0023037782 0.0029518667 0.0032406598
0.0038093387 0.0039051003 0.0047598993 0.006085393 0.0077040102 0.005504764 0.0053897076 0.0060025402
0.00815685 0.0097128125 0.009705959 0.009944068 0.010289345 0.010919629 0.011169329 0.011260537
0.01203612 0.012438777 0.012264924 0.013901697 0.01429801 0.011356609 0.010568701 0.0110774245
0.010787432 0.009736637 0.005736969 0.0021622323 0.003445383 0.0069569717 0.008718117 0.0055624032
0.010465789 0.011018638 0.009760541 0.009401371 0.007756322 0.0062827365 0.0070338557 0.008334006
0.008075559 0.007987635 0.0076747783 0.0076332856 0.0071036797 0.004919001 0.004678847 0.0045086243
0.0049524046 0.00044316569 0.00051950855 0.0006143224 0.0032104293 0.0031570299 0.0031126998 0.0032826075
0.0033742187 0.0034676 0.0035859882 0.003711984 0.003779872 0.0038264832 0.0037378261 0.0036034891
0.0035352071 0.0035858287 0.004452243 0.0006938117 0.0001253358 7.122276e-05 0.000129723 9.526542e-05
0.0002484652 0.000506432 0.0005448759 0.00054828444 0.0006117162 0.00058718846 0.0007129425 0.0009979067
0.0013680106 0.0013078704 0.0007945788 0.0005048553 0.0005330122 0.00061829155 0.00051177037 0.0005722736
0.00057344977 0.0005246689 0.0004134656 0.00034642182 0.00019364442 0.00010264377 1.1629873e-05 9.808798e-06
1.29766195e-05 2.088867e-05 2.7700116e-05 0.00010133499 0.00019312649 0.000108175744 0.00020824699 0.00057740574
0.0010622708 0.0014214262 0.0016766097 0.0017708708 0.0017859255 0.0017280524 0.0016042189 0.0012849866
0.0012548382 0.001287749 0.0011476416 0.0010960919 0.0011691968 0.0011360355 0.0010071202 0.0009611749
0.00095147797 0.00088318763 0.00085719716 0.0008158583 0.00076887425 0.0007180381 0.00067992613 0.0005948937
0.0005344949 0.0005132366 0.00045967117 0.00032841938 0.00019354156 0.00010074645 2.830603e-05 1.0287936e-05
9.978842e-06 1.2208228e-05 3.2709762e-05 0.00011748331 0.00021402215 0.00014508261 2.8773962e-05 3.055116e-05
0.00011176556 0.00025253865 0.00022838403 0.00013705224 0.00013151712 0.00018174524 0.0002580557 0.00028092187
0.0002851127 0.0002750999 0.00026893755 0.00026790312 0.0002537371 0.00022098221 0.00020476842 0.00019653262
0.00018887584 0.00017282586 0.00016351651 0.00017648994 0.00018025468 0.0001665773 0.00015318453 0.00013400656
0.00012889643 0.00012189353 0.000117793126 0.00010525763 0.00010503721 0.000103242135 8.851726e-05 8.802548e-05
7.081539e-05 6.223686e-05 6.2549836e-05 4.767366e-05 4.043553e-05 4.2504726e-05 4.167997e-05 2.8505323e-05
2.836887e-05 3.182761e-05 2.4009994e-05 1.7689352e-05 2.0202038e-05 1.4154995e-05 1.006838e-05 8.999818e-06

CNN_denoise_branch.CNNDenoise1.OO_conv.weight f4 [128, 200, 1, 1]
00000000: 61c9 3dbd ec4a 873c 5b68 9b3d 8cac d43c
00000010: a2b1 1c3d cb90 f83b 2b8c 453d 93f7 82bd
00000020: aabc fe3c 83ba 5bbd 4fcd 2bbd 44f4 5d3d
00000030: 0010 88bb afa5 98bc c281 083d fa8e 83bd
00000040: 1209 2b3d 6455 6e3d c015 90bd 94d0 263c
00000050: 5ebc 57bc 6899 51bd 15d0 123d 110e 07bd
00000060: e095 eebb f29b a23b f6c4 413d 9c3d 72bb
00000070: b117 9ebc 48c5 91bd 26bd 90bd 045a 18bd
00000080: cf3f 723d 263d bb3a f97b 493c f287 97bb
00000090: 9eae 393a a4c0 89bd 51e7 1ebd 9994 443c
000000a0: 3d95 cbbc 28ca 12bb 2749 443b d0ee 3ebd
000000b0: dc0d a13b 17b0 64bd 351e 0d3d b92f 843d
000000c0: 9ffb 3bbc 0aa7 623d bd52 393b d898 eabc
000000d0: c998 143d 6103 193d 4994 2e3d 596d 163d
000000e0: 154a e33c 819a 3cbd 0dea c5bc d159 49bd
000000f0: 1237 8bbd dbfc 1d3c f69b 32bc 954f 3fbd
00000100: ee5e 97bd 7709 58bd 86d1 17bc df0f 4c3d
00000110: c729 303d 1aa7 c63a b446 07bd 7d44 743d
00000120: 0abd 92bd ed10 30bd e4b1 09bd 7f32 8dbc
00000130: 3bba b2bc 6324 59bd aaa1 28bc aabe 22bc
00000140: fc23 0b3d fc8e 0cbd 29a2 fdbc d311 503d
00000150: 07ab 003d ede9 7bbd 9fbe 973b c632 79bd
00000160: 4799 e1bc 9db6 213d ad66 c7bc 3e27 37bb
00000170: 75a1 c7bb ddad d43a 5283 8c3c 1b1d cbba
00000180: 4363 82bc 3a7d f0bb a717 523d b5e0 89bd
00000190: 6a32 0b3d 2a28 5ebc a1a6 823d 2f6d 1c3d
000001a0: 11a0 50bd a580 7c3d 158b 713d e0f8 30bb
000001b0: a57b 463d 1e8c 3e3d 3f43 453d f4df b23c
000001c0: 0d64 f93c b9b0 22bd e978 843d 2c5a 443d
000001d0: 153b 843d 729a 2e3d 210d 5dbd 45e2 593d
000001e0: 5e36 4ebc c9ef 763d 798b ea3c a5c9 9a3c
000001f0: 8dc7 f93b 07f8 833d 479c 873d 5dc7 4ebd
00000200: 97a0 8fbb 1f9a 563d 6c41 473c 7182 243b
00000210: fb2b 0abd 2c63 4eba 0f68 473d 362a 87bd
00000220: 88bd 40bd 2e60 34bd 8bee 173d 4f52 523d
00000230: 9d5b 383d ac08 0dbd ef9a 72bc 2cc4 683d
00000240: e86b 1c3c 80bc 61bd 26a0 0d3d 84d5 1e3d
00000250: 4e4d c93b 47c5 8c3d 7e32 693c f11a 963d
00000260: 36f1 873c cdf6 36bd d53f 86bd 12f3 903c
00000270: 206e 783d 758e 00bd 6699 28bd 86bd 16bd
00000280: 582d 7a3d 315c 423d c73d 21bd fd1e 3cbd
00000290: b751 fabc 2600 663d c902 a13c 3afb 34bb
000002a0: 848b 003d 8f65 8e3d 665e 5cbd 41fe 1cbd
000002b0: ac92 cf3c a066 423d e990 3dbd acb5 4b3d
000002c0: 49d9 3fbd 77fc 1e3d 8979 58bd 1bbc 44bd
000002d0: a852 adbc 101e 183d e4bf 12bc 8a9d 903d
000002e0: fe6b 4dbd 2b2a 27bd 4312 b6bc 5f0a 30bd
000002f0: 699f 22bd 66af 1f3d f543 7d3d 8a15 2c3d
00000300: 1164 6d3d 1c46 273d c18c 4d3d 25ee e2bc
00000310: 0d90 04bd 3ebc 363d bc38 963c ca0f dabb
00000320: 773a 423d 6b40 90bc 46d6 63bc c5fe 883c
00000330: bfd2 ef3c f2d9 533d 75e6 003d 5b5d 8ebd
00000340: db1f 9a3c 7acf 1dbd 8042 ca3c c27a 0abd
00000350: fd88 b7bc f36f d83c 67da 26bd 9e45 523d
00000360: d454 8f3d 4bbb 2ebc aa19 b23c 9b14 24bc
00000370: 84ea 0bbd 2399 62bd 2800 b73b 6902 393d
00000380: 64fd c9bc 0d85 0c3d 8722 193d b524 57bd
00000390: 7724 05bd e4e2 623d c932 653d 581a c43c
000003a0: 3cac 53bd de15 203d d424 febc ffd6 dcbc
000003b0: 1d64 a93c 260d 63bd c3fe 8a3c f008 d33c
000003c0: bf4a 6a3c 16ad 663d 4192 e8bb 451c 263d
000003d0: 0d98 8a3d e846 583d 3820 f3bb 87f8 80bd
000003e0: 90c1 653c 4e5e f93c 1e0e 8cbd 969e b4bc
000003f0: 7bb4 43bd 74cf f7bc e8a3 043c 60fd 0c3d
-0.046334628 0.016515218 0.075882636 0.025961183 0.03825534 0.00758562 0.048229378 -0.06394877
0.031095821 -0.05364467 -0.041943844 0.054188028 -0.004152298 -0.018633692 0.03332687 -0.06423755
0.041756697 0.058186904 -0.070353985 0.010181565 -0.013167469 -0.05117169 0.035842974 -0.0329724
-0.00728105 0.004962438 0.047306977 -0.0036962992 -0.019298406 -0.071177065 -0.07067327 -0.03719522
0.059142884 0.0014285191 0.012297624 -0.0046243602 0.000708321 -0.067261964 -0.03879482 0.011998319
-0.024851436 -0.0022398327 0.0029950829 -0.046614468 0.0049149822 -0.055831995 0.034452636 0.06454415
-0.011473565 0.055335082 0.0028278076 -0.028637335 0.03627852 0.037356738 0.042621884 0.036725376
0.027745286 -0.046045784 -0.024159456 -0.04915792 -0.06797613 0.009642805 -0.010901442 -0.046706755
-0.07391153 -0.0527434 -0.009266263 0.049819823 0.043008592 0.0015156001 -0.033026412 0.059635628
-0.071649626 -0.04298489 -0.033616915 -0.017235992 -0.021817317 -0.053013217 -0.01029245 -0.009933153
0.033969864 -0.034316048 -0.030961113 0.05079825 0.031413104 -0.061502386 0.004630878 -0.060839437
-0.027538909 0.039480794 -0.024340952 -0.0027946974 -0.006092245 0.0016226132 0.017152462 -0.0015496345
-0.015916472 -0.007339147 0.051292088 -0.067323126 0.033983625 -0.013559381 0.06379438 0.038190063
-0.0509339 0.061646122 0.05897053 -0.002700381 0.04845776 0.046520345 0.048159834 0.021835305
0.030443216 -0.039719317 0.06468374 0.047937557 0.064565815 0.04262776 -0.0539676 0.053194303
-0.012586204 0.06028727 0.028630959 0.01889498 0.0076226653 0.06443792 0.066216044 -0.050483096
-0.0043831575 0.052393075 0.012161594 0.0025102163 -0.03373335 -0.0007873054 0.048683222 -0.06599848
-0.04705575 -0.044037037 0.037092727 0.051348027 0.045009244 -0.0344321 -0.014807447 0.05682771
0.009547211 -0.05511141 0.034576558 0.038777843 0.0061432486 0.06873565 0.01423323 0.073293574
0.01659451 -0.04466896 -0.06555144 0.01769403 0.0606519 -0.031385858 -0.041161917 -0.036801837
0.0610784 0.0474512 -0.039365556 -0.04592799 -0.030556543 0.056152485 0.019654648 -0.0027615563
0.031383052 0.069529645 -0.053800963 -0.038328413 0.025338493 0.047461152 -0.046280775 0.049733803
-0.04683808 0.038814988 -0.05285028 -0.048030954 -0.021157578 0.037138045 -0.008956883 0.07061298
-0.050151818 -0.0408117 -0.022225505 -0.04297864 -0.039702807 0.038985632 0.061832387 0.04201273
0.05795676 0.040838346 0.05018306 -0.027701447 -0.03236394 0.044613115 0.0183376 -0.0066547142
0.047419038 -0.017608842 -0.013906067 0.016723046 0.029275296 0.05172152 0.03146978 -0.069514
0.018814018 -0.038527943 0.024689913 -0.033808477 -0.022404188 0.026420569 -0.04073563 0.051335923
0.069986016 -0.010664771 0.021740753 -0.010014678 -0.0341592 -0.055321824 0.0055847354 0.045168314
-0.024656959 0.034306575 0.037386443 -0.05252524 -0.03250548 0.05539216 0.055956636 0.023938343
-0.051677927 0.039083354 -0.03102342 -0.026957987 0.02067762 -0.05543246 0.016967183 0.025761098
0.014300047 0.05631741 -0.007097513 0.040554304 0.06767283 0.052801996 -0.0074196123 -0.06297403
0.0140232 0.030440476 -0.0683863 -0.022048276 -0.04777954 -0.030250289 0.008095719 0.034421325

CNN_denoise_branch.CNNDenoise1.OO_conv.bias f4 [128]
00000000: c0b2 263b b758 623c 5356 123d b3cd 69bd
00000010: 7a4f 9bbd e328 98bd 74d8 ac3c 4cc6 39bd
00000020: 1bf9 a6bc 3942 84bd 3a39 783c ab15 0b3d
00000030: c0fc 71bd 863b 5a3c a286 3f3c 635e 403d
00000040: f92b 8abc 0493 403d 0fc0 023d 0bb6 c4bb
00000050: 327f d63c bbbd 413c 8244 973d 51b5 863c
00000060: 7baa 603c c11b da39 1892 ad3c 082f 78bc
00000070: fbe1 a23b 78dc 5f3a 7e59 c4bc 8f29 2bbd
00000080: e3fc 34bd cf67 013d 35bb 563b db74 fa3c
00000090: 4673 b9bc dd71 283d af5d e93c 2575 28bd
000000a0: cbff bcbc 8000 2bbd b655 47bd 18a0 c73c
000000b0: 10fd 833c 12b3 563d e67e c8bb 6d52 38bd
000000c0: 2f7e cc3b 6e6c 873b 8f05 0abd acdb 59bd
000000d0: 936b 0d3c 99fd 8cbd e58b 5e3d ad57 f13c
000000e0: 1c40 d5bb 609c 14bd bb06 be38 9304 81bd
000000f0: 8c20 c93b 1516 78bd c3ca fdbb c56e 41b9
00000100: 3786 26b9 825b 35bd cc21 553d 2c89 1fbd
00000110: 917c b43c 412a b2bc 8ca2 85bd 3727 663d
00000120: 7107 103d ec36 8b3d e49c 3ebd b625 163d
00000130: 76de 4f3c 4be1 413d f5d7 84bd 0ebd ecbc
00000140: ff4c 26bd 3fa9 e23b 12f8 eabc 2f28 873d
00000150: 24ea 733c e5d3 083c 8a26 913d dfe7 2d3d
00000160: cdcd a0bd 0d4e 093d 4488 c53c 0779 33bd
00000170: b0a2 d1bc 0240 86bd d777 18bd 4093 493d
00000180: 7c87 463d a0de 99bc 49cb 263d 7622 86bd
00000190: e6c4 703c db7e 38bd c14b fb3c 27ff 6f3d
000001a0: 3565 293d a1ef 413c 7a33 bdbc 6f4c 6bbd
000001b0: b0af f23c 32fd 98bc a198 1f3d 0916 3abd
000001c0: 68df 793d 6e85 ca3c c381 80bd c1f6 2bbb
000001d0: 4917 48bd a154 d7bc d43e 7fbc 5d1b 533d
000001e0: ff32 1d3b e3b5 65bd 6b0f 4fbb ab46 6fbd
000001f0: 145f c7bc 8075 353c 8db8 a2bd 092d d2bc
0.0025436133 0.013815097 0.035726856 -0.057080936 -0.07583518 -0.074296735 0.021099307 -0.045355126
-0.020382455 -0.064579435 0.015150363 0.03395621 -0.05907893 0.013319856 0.011689814 0.046965014
-0.01686667 0.047015205 0.031921443 -0.0060031465 0.026183698 0.01182502 0.07386114 0.01644388
0.013712521 0.00041600878 0.021187827 -0.015147932 0.0049707866 0.00085396273 -0.023968454 -0.04178768
-0.044186484 0.03159314 0.0032765393 0.0305733 -0.022637974 0.041124213 0.028487055 -0.041127343
-0.02307119 -0.041748524 -0.048665725 0.02436833 0.01611188 0.05241687 -0.006118643 -0.045000482
0.006240628 0.004132799 -0.033696707 -0.05318801 0.008631605 -0.068843074 0.054332633 0.029460752
-0.0065078866 -0.036281943 9.06116e-05 -0.062997006 0.006137913 -0.060567934 -0.0077451183 -0.00018447179
-0.00015880993 -0.04427672 0.052034184 -0.038949177 0.022032054 -0.021748664 -0.06525144 0.056189742
0.035163347 0.06797585 -0.04653634 0.036657058 0.012687316 0.047333997 -0.06486503 -0.028898742
-0.040600773 0.0069171484 -0.028682742 0.06599461 0.014887366 0.008351301 0.07087429 0.042457458
-0.078517534 0.0335217 0.024112828 -0.043816593 -0.02559027 -0.06555177 -0.037223663 0.049212694
0.04846905 -0.018782914 0.04072121 -0.06549542 0.014695382 -0.045042854 0.03067577 0.05859294
0.041356284 0.011836917 -0.023095835 -0.05744594 0.02962479 -0.01867542 0.038963918 -0.04543117
0.061004072 0.024721827 -0.0627475 -0.0026239606 -0.04885033 -0.026285471 -0.015578944 0.051539768
0.0023986695 -0.056081664 -0.0031594883 -0.058417004 -0.024337329 0.011075377 -0.079453565 -0.02565624

CNN_denoise_branch.CNNDenoise2.BN.weight f4 [128]
00000000: 49bc 803f b911 7f3f 29a9 803f c636 7f3f
00000010: 9a6c 7f3f 20ac 803f dafc 7e3f 4006 7e3f
00000020: 86ce 7e3f 2868 7f3f 7325 803f a75e 7e3f
00000030: b8e1 7f3f b13d 803f 8ae3 7d3f 8b75 803f
00000040: b6c2 7e3f 1abd 7f3f 6b68 803f b6c2 7e3f
00000050: eb9e 7f3f 3358 803f ced3 803f 9050 7e3f
00000060: 8bfe 7f3f 4eed 7e3f 1286 803f 3d5d 803f
00000070: bbb8 7e3f 9c6d 7f3f a27c 7e3f bacd 7f3f
00000080: d708 803f d979 803f af82 803f 5b12 7f3f
00000090: 60d1 7d3f 88ee 803f a82c 7f3f 8959 803f
000000a0: 7496 7f3f ac01 813f 510d 7f3f 9a34 7e3f
000000b0: abed 7f3f d225 7e3f b35e 7f3f 8c6e 803f
000000c0: 14e1 7f3f a36c 813f 327e 7f3f 8f68 803f
000000d0: 0347 803f 2115 803f 09c4 7e3f 5733 7f3f
000000e0: 2259 7f3f d5e6 7e3f ad7f 803f 340c 803f
000000f0: b1e1 7f3f cf6f 803f 9653 803f 3552 7f3f
00000100: 167a 803f 3b3d 803f 0052 7f3f 20ab 7d3f
00000110: 0c99 7e3f 44a0 803f d966 803f bb2a 803f
00000120: 640f 803f 5ca7 803f 1db7 7e3f ba1e 7e3f
00000130: bc91 7f3f 7876 7f3f ff40 803f e196 7e3f
00000140: 049e 803f c62b 803f 1be0 7f3f 7dbe 803f
00000150: 084e 7f3f d0f8 7e3f 69af 7f3f 615d 803f
00000160: fc55 7f3f 6865 803f 08f0 7d3f 66e1 803f
00000170: a7d8 7e3f df0e 7f3f ceac 7e3f eeba 803f
00000180: 6876 803f 68e7 7e3f 12a2 7e3f e21a 813f
00000190: 3180 7e3f 83e5 7d3f 141d 803f 304a 7f3f
000001a0: 5861 7d3f 206b 803f ae01 803f 15ec 7e3f
000001b0: d727 813f 8aed 7e3f e40d 803f 7db8 7e3f
000001c0: 26b9 803f 408c 803f 213e 7f3f 5dc1 7e3f
000001d0: c28c 803f 0177 7f3f 3551 7f3f 75ba 7e3f
000001e0: acd6 7d3f 105a 803f 30f7 803f 7c36 803f
000001f0: 210b 7f3f 9e67 803f 7377 803f 79f4 803f
1.005746 0.9963642 1.0051624 0.9969295 0.9977509 1.0052528 0.9960457 0.99228287
0.9953388 0.99768305 1.0011429 0.9936318 0.99953794 1.0018827 0.9917532 1.0035871
0.99515855 0.9989792 1.0031866 0.99515855 0.99851865 1.0026916 1.0064638 0.9934168
0.99997777 0.9958085 1.0040915 1.0028454 0.99500626 0.99776626 0.99408925 0.9992329
1.0002698 1.0037185 1.0039881 0.99637383 0.99147606 1.0072794 0.99677515 1.0027324
0.9983895 1.0078635 0.99629694 0.99299014 0.9997203 0.9927646 0.99753875 1.0033736
0.99952817 1.0111278 0.99801934 1.0031909 1.0021671 1.0006448 0.99517876 0.99687713
0.9974538 0.9957097 1.0038964 1.0003724 0.9995375 1.0034121 1.0025508 0.9973481
1.0037258 1.0018686 0.997345 0.9908924 0.9945228 1.0048909 1.0031387 1.001304
1.0004697 1.0051074 0.9949816 0.99265635 0.9983175 0.99790144 1.0019835 0.9944897
1.0048223 1.0013359 0.9995133 1.0058132 0.9972844 0.9959841 0.9987703 1.0028497
0.99740577 1.0030947 0.99194384 1.0068786 0.99549335 0.99632066 0.9948243 1.0057046
1.0036135 0.9957185 0.9946605 1.0086329 0.99414355 0.9917833 1.0008874 0.99722576
0.9897666 1.0032692 1.0000513 0.9957898 1.0090283 0.99581206 1.0004239 0.99500257
1.0056503 1.0042801 0.99704176 0.995138 1.0042956 0.9979096 0.9973329 0.9950326
0.9915569 1.0027485 1.0075436 1.0016627 0.99626356 1.0031621 1.0036453 1.0074607

CNN_denoise_branch.CNNDenoise2.BN.bias f4 [128]
00000000: 5115 0e3a f5e6 923b e3ff 68bc bb36 003c
00000010: 4237 2e3a aa49 08bc fcc7 d6bb b6d7 0ebc
00000020: 6c3e 19bc cd14 163c b0aa bcbb 3879 eeba
00000030: 401c f93b 3ef2 c83b 0fbc 263b 5b4e deba
00000040: 5ebe cfbb 572b b43b 13e4 953c 6b0e 063c
00000050: d9e1 7f3c 061b 5bbc 8d7f 33bc 1704 803c
00000060: 7f46 58ba e4ec 173b de75 4abc 24ed 31bc
00000070: 4d28 913b bba5 0b38 5bdf 1cba 9613 12bc
00000080: 8a8e 18bc 5f15 133c 4d21 ba39 aa08 2fbb
00000090: 9012 093c a91b 4ebc 14da 893b 1bf2 0fbc
000000a0: 05da 153b 8ca1 92b9 fcd7 573c cd72 8b3b
000000b0: 9697 8abb 5af5 d8bb 8879 153c b2bc 0dbc
000000c0: 8b3f 28bc b963 8e3c 2a2a 5fbb 9714 1bbc
000000d0: 3932 89bb 035a 2a3c fc0f ee3b fada a0bb
000000e0: 97d9 e93b 02e2 1ebc 9267 e8bb bea9 5e3c
000000f0: 48cf dd3b c1ee c73b 873c c9bb 7ad3 fbbb
00000100: b117 57bc 6e42 9abc 2e92 3e3a 08ff 11bc
00000110: b24c 84bc 6ae6 823b 1952 423b 88d8 83bc
00000120: b2ef faba 4752 25bb 06b9 0b3a cb01 923c
00000130: a00c 2f3c e975 0cbc aed4 b4b9 fcf3 983b
00000140: b42f 823b 9a5a 043c 573a 72bb 7513 743c
00000150: 05ef ef39 3f45 3b3a fdb8 f13b 9233 4abc
00000160: 6a9a 163c e424 2dbc c8a9 5ab9 ee69 e0ba
00000170: 0864 b7bb b42a 10ba 2bb3 bbbb 3ccb 21bc
00000180: 5c10 1ebc b36f ac39 0d98 bb3b 216f 2a3b
00000190: c9b3 87ba f46e c9bb 478f a4b9 015a c8bb
000001a0: 66cf 603c 9eb2 35bc 9d17 5b3c fa59 9f3c
000001b0: 632f 933a 6038 593c 2f0e 0b3c 4bc4 4abc
000001c0: 940a b83a 46fc 8d3b 7b5e a1bb a671 7dbc
000001d0: c3d1 903c 8e61 61bb 0c89 2d3a b6f6 c93b
000001e0: f6de 023c 8d71 213b 04de 0c3c 7b44 a1bb
000001f0: ebde 9b3c 6816 023b 480a b1bb 5a98 a93a
0.00054200465 0.0044830986 -0.014221164 0.007825549 0.00066458073 -0.008318344 -0.0065546017 -0.008718422
-0.009353261 0.009160233 -0.005757652 -0.0018194085 0.0076022446 0.006132393 0.0025441682 -0.0016960608
-0.006339832 0.0054983306 0.01829723 0.008182148 0.015617811 -0.013373142 -0.010955703 0.01562695
-0.0008250251 0.002318197 -0.012357203 -0.010859761 0.004429853 3.329453e-05 -0.00059842103 -0.008915802
-0.009311328 0.008977263 0.00035501496 -0.0026708045 0.008366242 -0.012579837 0.004206905 -0.00878575
0.0022865545 -0.00027967652 0.013174053 0.0042556287 -0.0042294962 -0.006621045 0.009123214 -0.0086509455
-0.010269056 0.017381536 -0.0034052231 -0.009465358 -0.004186895 0.010397437 0.007265089 -0.0049089165
0.0071365344 -0.009697439 -0.0070924247 0.013590274 0.0067690946 0.0061014597 -0.0061412486 -0.007685122
-0.013128207 -0.018830504 0.0007269707 -0.008910902 -0.016149852 0.0039947527 0.0029650985 -0.016094461
-0.0019144921 -0.0025226043 0.000533 0.01782312 0.010684162 -0.008573034 -0.00034490734 0.004667757
0.003972972 0.008078242 -0.0036961043 0.014897217 0.00045763716 0.00071438024 0.0073767886 -0.012341397
0.009192089 -0.010567877 -0.00020853349 -0.0017121413 -0.0055966415 -0.00054995273 -0.0057281456 -0.009875115
-0.009647455 0.0003288962 0.005724913 0.002600618 -0.0010353263 -0.00614726 -0.00031387268 -0.006114245
0.013721323 -0.011089949 0.013372329 0.019452084 0.0011229332 0.01325807 0.008487268 -0.012375901
0.0014041238 0.004333052 -0.004924593 -0.01546899 0.017678147 -0.0034390423 0.0006619848 0.0061634434
0.007987728 0.0024634332 0.0085978545 -0.0049214936 0.019027194 0.001984978 -0.005402837 0.0012939081

CNN_denoise_branch.CNNDenoise2.BN.running_mean f4 [128]
00000000: bba8 ec3e 45f5 983d 447e cf3e e8c3 c43e
00000010: 9c8a 003f f484 703e 1be2 983e ec6f 4c3e
00000020: 0306 253e 7eba a93d f0a0 7c3e e166 8d3e
00000030: 5161 7b3d bc4f 9e3e 1ffb e33d 34d8 413e
00000040: c5dc 863e c3cb 3c3e 0c1c e23d 8d0b 853e
00000050: 4100 953e b6da d53e bd97 6c3e 937b 863e
00000060: 200f 823e 192d 503e 4089 f43d d2f8 583e
00000070: 51b5 a63e ec5a f63d a93f d53d 9165 0c3f
00000080: bf71 2d3f 7710 033f 6b13 b23e ae2c 143f
00000090: 6707 443e b0cd 2d3e 065e ac3e da44 8b3e
000000a0: 8f21 523e 3c07 b03d b3b7 f43d 4ade 833e
000000b0: 6b06 8a3d 4f65 573e 7e00 f83d c756 a83e
000000c0: cdc8 1d3e 7ee1 7c3d aa0b bc3d ae22 be3e
000000d0: 8393 ee3e cc65 a43d a96b 593e 4df9 0a3e
000000e0: 08f2 e73d 6612 b33d bb62 123f 5025 703e
000000f0: 0654 4f3e 5441 ec3d a094 ae3e e821 b73e
00000100: 1bfd 3a3e 46a2 453f c53e 763e 4513 2a3f
00000110: f10e 013e 34aa f63e 100b d23d dfa7 c63e
00000120: 1cd9 483e 5b55 e73e 1fd6 0e3f caaf f93e
00000130: 7e27 6e3e db2a 8d3e d22a 893e b66a c03d
00000140: c30b 313e cfa7 b93e 6653 2e3f 6b45 4e3e
00000150: 97ee 023e b54d eb3e 97ec 933e 8ba7 453e
00000160: cea6 403d a3a5 d23d 3c0b 003e 5e50 a53e
00000170: 4c44 fd3e 1cde dd3d 37e4 e03e 304c aa3e
00000180: 3873 483e 0233 0a3e 6945 433e 3333 aa3d
00000190: 9473 3a3e eb59 3e3e ddcc 233e da9e 383e
000001a0: 5301 fc3e 2ba4 603e 38b4 153e 5cd1 7a3e
000001b0: 1225 da3d 4d07 2f3e 7f08 073e 7171 9c3d
000001c0: 6569 433e 7fdc 503e 8f71 eb3e d53a 5f3e
000001d0: caf3 863e 3389 b43d cbe8 2b3e ebe5 ee3e
000001e0: e33a 103e d6b2 623d 9491 c03d 23d4 023f
000001f0: bac8 123e ab11 0d3e 43fa b53e fdac a23d
0.4622248 0.074686565 0.4052602 0.38430715 0.502115 0.23488218 0.29860005 0.1996457
0.16115575 0.08287524 0.24670768 0.27617553 0.061372105 0.30920208 0.11131882 0.18930131
0.2634031 0.18437104 0.11040506 0.25985375 0.29101756 0.41768426 0.23104759 0.26266155
0.25402164 0.20329703 0.11940241 0.21188667 0.32560208 0.12029061 0.10412533 0.5484248
0.6775169 0.51197 0.3478044 0.57880676 0.19143449 0.16972995 0.33665484 0.27200967
0.20520614 0.0859513 0.119491 0.2575553 0.067395054 0.2103474 0.12109469 0.32878706
0.1540863 0.061738484 0.09181912 0.37135834 0.46596918 0.08027229 0.21232475 0.13571663
0.11325461 0.087437436 0.571819 0.23451734 0.20246896 0.11535898 0.34097767 0.35768056
0.18260615 0.77200735 0.24047382 0.6643565 0.12603356 0.4817673 0.10256016 0.3879995
0.1961407 0.4518231 0.5579547 0.4876693 0.23257253 0.2757176 0.26790482 0.093953535
0.17289643 0.3626084 0.68096006 0.20143668 0.12786327 0.45957723 0.2889144 0.19302194
0.047034077 0.10285499 0.12504286 0.32287878 0.4946617 0.108333796 0.43924114 0.3326125
0.19575202 0.1349602 0.19069447 0.08310547 0.18208152 0.18588988 0.15996118 0.18029347
0.4921976 0.21937625 0.14619529 0.24493927 0.10651602 0.17092629 0.13186835 0.07638825
0.19083174 0.20396613 0.45985076 0.21799786 0.2635787 0.08815231 0.16788022 0.46659788
0.14084964 0.055346332 0.09402767 0.51104945 0.14334384 0.13776271 0.35542497 0.07943151

CNN_denoise_branch.CNNDenoise2.BN.running_var f4 [128]
00000000: 11c5 973e 0d4f 463c 4d9d 7b3e e16f ae3e
00000010: 0f47 ea3e b234 013e 5f1e 293e 4d2a fc3d
00000020: 8668 853d d629 eb3c d2aa 013e 41c4 4b3e
00000030: 7161 c13c 848a 4d3e 0ff2 bd3c 515d 8b3d
00000040: 9405 043e 0a8a 3e3d 0dd0 993c e71b 343e
00000050: 2e18 143e 2c12 aa3e 76ef 963d a295 a63d
00000060: 5ab7 e53d dbd0 813d 6b85 9d3c 5b9d c13d
00000070: 1cd0 753e 5469 383d ccb8 043d cc53 d83e
00000080: 9bf7 363f e2fe cb3e f29c 503e 2347 123f
00000090: d786 6d3d 0921 623d 343a 3c3e d802 cd3d
000000a0: 2d4a c63d 970b cc3c 452a 2f3d ecd1 153e
000000b0: 49bc ee3b 199d 8b3d 0644 3b3d b843 3a3e
000000c0: 339b bc3d 4801 0a3c eff4 b73c d0c0 7c3e
000000d0: 039e 8e3e 84a2 a83c c08c b03d d630 053d
000000e0: 85e7 ba3c eb2b 863c 1e2e f23e dccb 9d3d
000000f0: c778 653d cdce fa3c c630 3d3e 2496 4f3e
00000100: 44ac b33d a080 663f 52dc d33d 9d46 173f
00000110: 2022 d93c 9d46 bc3e 3531 e83c c82a 6c3e
00000120: 44b5 7f3d fc3a 8a3e 4fc3 f33e 4769 b13e
00000130: c4d7 b63d 0721 103e a656 f63d 4ad7 8a3c
00000140: 7402 873d 17bf 623e 4f22 2e3f 0129 2b3d
00000150: 63cc 023d 9d80 a33e f186 323e 0e5e 803d
00000160: 1b50 fe3b 72e7 8f3c 9424 f13c ed1d 5d3e
00000170: 7c25 ab3e 727a e73c 579c 903e fb00 293e
00000180: db25 843d 688a 6d3d 825d 613d 1265 823c
00000190: f6c8 713d 50f3 d43d a6a5 4f3d 9655 8e3d
000001a0: 7c62 b23e 922d 9b3d 4936 6e3d 7561 283e
000001b0: 25e0 833c 94f1 883d 3aab c13c eb2c 553c
000001c0: fd42 453d 08f3 a13d d893 ac3e c8b7 c93d
000001d0: 041b fa3d 030c 843c 7d54 483d 0d4e c63e
000001e0: 36ec 1f3d 77de 883c aa7e e33c 7efb 033f
000001f0: 28a4 5c3d ea10 343d 5d3b 413e d367 983c
0.29642537 0.012103808 0.24571724 0.34069732 0.45757338 0.12617758 0.16515492 0.12312756
0.06514077 0.028706472 0.12662819 0.19899084 0.023606034 0.20072371 0.023186712 0.06804908
0.12892753 0.046518363 0.018775964 0.17588769 0.14462349 0.3321699 0.07369892 0.08134009
0.11216612 0.06338664 0.019228658 0.09453841 0.24005169 0.045022324 0.0324028 0.42251432
0.71471566 0.39842898 0.2037237 0.57139796 0.05798992 0.055207286 0.18381578 0.10010308
0.09682117 0.02490787 0.04276492 0.1463086 0.007285629 0.068170734 0.04571917 0.18189895
0.092092894 0.008423157 0.02245566 0.24682927 0.27854928 0.020585306 0.08620596 0.032517277
0.022815475 0.016378364 0.4730081 0.07704899 0.056023385 0.030616188 0.18475637 0.20272118
0.087730914 0.90040016 0.10344757 0.5909212 0.02650553 0.36772624 0.028343776 0.23063195
0.062428728 0.26998127 0.47609946 0.34650633 0.08927873 0.14075099 0.12028246 0.016948361
0.06592265 0.22143207 0.680211 0.04178715 0.0319332 0.31934062 0.17434289 0.062679395
0.007761014 0.017566416 0.029436387 0.21593447 0.33427036 0.028256629 0.28244278 0.1650428
0.06452533 0.057993323 0.055020817 0.015917335 0.059029542 0.10397971 0.050695084 0.06949918
0.34840763 0.07577051 0.05815724 0.16443427 0.016098091 0.06686702 0.023641217 0.013011198
0.048159588 0.07907683 0.33706546 0.098495066 0.12212184 0.016119009 0.0489087 0.38731423
0.039043628 0.016707642 0.02777036 0.5155562 0.05386749 0.043961443 0.18870302 0.018604195

CNN_denoise_branch.CNNDenoise2.OO_conv.weight f4 [128, 128, 1, 1]
00000000: 7b21 6cbd e34b 513d 85c8 6b3d 5e4e 083d
00000010: d3c6 81bd c750 0abd e4f4 4ebc 63c3 9b3d
00000020: 654f 933d e625 bdbb 4d10 963d 350a 2dbc
00000030: d97d 4bbd 5786 fabc eaaa 4e3d 82e0 7bbd
00000040: 7505 253d 2b59 b6bc 61f9 3fbd 42c5 3cbd
00000050: d1d9 21bd a1f6 91ba fdbf a43d 036a a93d
00000060: 854e 42bd 25dd 483b 1ef3 4bbc c905 52bd
00000070: e7af 8abd 9752 9abc 5624 803d e125 90bd
00000080: 6cd0 b73c 0fdd b23c 0cd6 dbba 1f5e 8fbd
00000090: 6e99 7f3c b37f 95bb bfa3 13bd 1d59 9a3d
000000a0: 838c 9ebc c673 933b baf5 a6bd f17d 713d
000000b0: 21e0 30bd 1377 b83c ae43 16bd 1f7a b03d
000000c0: 5273 353b 27c8 9fbd 96ee 463d e1b4 14b8
000000d0: 733c 4cbd 4c26 14bd cdfd a3bd 3d68 3c3b
000000e0: 817e eebc d0dc 0dbc 91ec b4bc 486f 55bd
000000f0: 7309 e9ba c9e3 71bd e568 c2bc a8c6 5dbd
00000100: 2dd1 dfbb d051 803d 97ed 24bd eec4 833d
00000110: 7ea1 813d 698a a7bd 21ec 9dbd e25b 91bd
00000120: 9c34 213d 4ab0 0cbd 5920 1ebd 93c1 0bba
00000130: 735a 2cbc ee03 b3bc bfa5 11bd 5a59 b5bc
00000140: 1edf 363d 7336 863d b459 373d f630 353c
00000150: 7fd5 8d3d bdd9 babd 7b6a 96bb 2400 843d
00000160: aa31 9b3d a9f8 8f3d 9ee3 a63d eae0 753d
00000170: 2313 2f3d 7ec9 74bd e213 593b 2815 b0bc
00000180: 4683 833d 717a 6b3b 6da0 1a3d c660 3f3d
00000190: 0675 d93c b247 9dbd f950 213d 54ab 5dbd
000001a0: 6e43 a93c 2d56 833b 2a8e 2f3c 2043 803d
000001b0: 6975 343c bd7d 7cbd 52ac 103d 9444 143c
000001c0: 1159 93bd c72b 48bd 9774 00bc 5f42 203d
000001d0: 6fee 8cbd 0139 513c f7d8 983d 773a 933d
000001e0: 4bda d53c 139b 92bd fd79 b33d f2ce 82bd
000001f0: 30f4 5e3d 9af6 21bd b5e1 3dbd f1d3 a9bd
00000200: 7bcc 87bd c9f0 a53d 5715 8a3d d072 b7bd
00000210: 77fb e53a c9ed d73a 5630 83bd d22a c73b
00000220: a453 583d 667a 693d 5edf 2dbd c993 5dbd
00000230: b585 9ebd e3af 9bbd de33 7dbd 3fc5 623d
00000240: 55d0 8bbd 299b a5bd 4abc 99bc eec6 21bd
00000250: 3de2 8a3d aa2f e13b 32cb 68bd d002 863b
00000260: 2046 aa3d d4ee 57bd 07a3 d33c a3dc 7fbb
00000270: a21c 493d 29bf 6fbd 07f6 61bc 1e01 98bb
00000280: fea5 30bd 3ce0 5fbb b451 33bd a6d7 803d
00000290: fbd0 c1bd e5df a63b 472a 893d bab7 aabb
000002a0: af3e 42bd 7fcd 1ebc 32aa adbd 50b9 70bd
000002b0: b315 423d 645a 353d 36ba fabc 8977 8e3d
000002c0: f450 733c 204d 9f3d bb71 aebd 18aa 233d
000002d0: 80b6 8cbb 9ea6 a53c ff0a 9abd 8bdc 38bd
000002e0: ddb3 933d d6ee 56bd 0cec 0ebb d253 8fbd
000002f0: 7401 f1bc 23b9 1c3d fa83 90bd 3aa8 1c3c
00000300: 0271 58bd c6b8 85bd 055d 043d 48e9 9fbd
00000310: 7b8a 953d cedc 91bd c32d aa3d e21d 8d3d
00000320: b36b 413b 6790 61bd 89d1 08bc 3610 c5bc
00000330: 1575 a3bd ea42 46bc b8f2 7a3d 9bca 0fbd
00000340: 175f 3e3d 68c4 98bd 7b72 2ebd 4b39 9fbd
00000350: 7d23 a0bd 9ea9 52bd 892b 20bd a9f9 823d
00000360: 166b 8abd 916b 993b ef75 77bd a682 993d
00000370: 8c55 70bc 383d 26bd 5fd0 cc3b cbca a0bd
00000380: d09a 843d 5a5d f0bc 98cf 63bc e018 b5bd
00000390: 4028 b03d b467 b4bb cbe2 96bd b22e c03c
000003a0: c263 843d 39ad 173d e5e4 e03c 2486 4c3d
000003b0: 2ef8 58bc 1401 ae3d 0a7f aebd 51c9 6abd
000003c0: 43dd 35bd 5d61 7abd 9687 13bd 9459 9cbd
000003d0: 2096 3cbd b6eb 27bd 27e4 883d 8546 a83d
000003e0: fca5 afbc a479 9cbd 09f4 3abc ed30 ac3d
000003f0: 10d7 4e3c be14 a0bc 44d9 763d e8e8 6ebd
-0.057649117 0.05109776 0.057564277 0.03327786 -0.06336751 -0.03376844 -0.012631629 0.076056264
0.07192878 -0.00577234 0.07327328 -0.010561516 -0.049680565 -0.030581636 0.050455965 -0.061493404
0.040288407 -0.022259315 -0.046868686 -0.046086557 -0.039514367 -0.0011136123 0.08044431 0.08272173
-0.047438163 0.003064939 -0.0124481 -0.05127505 -0.06771832 -0.01883821 0.062569305 -0.07038475
0.02243825 0.021833925 -0.0016772165 -0.07000374 0.015600545 -0.004562342 -0.036044832 0.07536528
-0.01935411 0.0044998853 -0.08152337 0.058957998 -0.043182496 0.022517717 -0.036685638 0.08617043
0.0027687144 -0.07801848 0.048567377 -3.5454406e-05 -0.049862336 -0.036169335 -0.08007393 0.0028748654
-0.029113056 -0.008658603 -0.02208546 -0.05210808 -0.0017779305 -0.059055123 -0.023731658 -0.05414453
-0.0068303556 0.062656045 -0.040265646 0.06434046 0.0632963 -0.081806965 -0.07711054 -0.070976034
0.039356813 -0.03434781 -0.038605068 -0.0005331274 -0.010519612 -0.02185246 -0.03555846 -0.022137333
0.044646375 0.06553354 0.044763282 0.0110590365 0.06925487 -0.091235615 -0.00459033 0.06445339
0.07577832 0.0702985 0.08148883 0.060028948 0.04274286 -0.05976247 0.0033123423 -0.021494463
0.06421523 0.0035931135 0.03775065 0.04672315 0.026545059 -0.076796904 0.039383862 -0.05411847
0.020662036 0.0040080757 0.010715047 0.06262803 0.011014321 -0.06164335 0.035320587 0.009049553
-0.071947224 -0.048869874 -0.007840297 0.039125796 -0.06881415 0.012769938 0.07463258 0.07188886
0.026105067 -0.07158484 0.08763502 -0.06387128 0.054432094 -0.03954182 -0.04635783 -0.08292378
-0.066307984 0.08102567 0.067423515 -0.089574456 0.0017546256 0.0016474064 -0.06405704 0.0060781026
0.05281414 0.057001494 -0.042449348 -0.054096017 -0.07740346 -0.07601907 -0.061817043 0.05536389
-0.068268456 -0.08086235 -0.018766541 -0.039496355 0.06781433 0.006872137 -0.056834407 0.0040896907
0.083141565 -0.052718 0.025834573 -0.0039041422 0.049099572 -0.058531914 -0.013791568 -0.004638805
-0.043127052 -0.0034160754 -0.04377909 0.06291132 -0.09463688 0.0050926083 0.06697517 -0.00520989
-0.04742306 -0.009692549 -0.08479728 -0.058770478 0.047383975 0.044275656 -0.03060637 0.06956393
0.014850844 0.07778382 -0.08517786 0.039957136 -0.0042942166 0.02022105 -0.075216286 -0.0451322
0.072120406 -0.052473865 -0.0021808175 -0.06998409 -0.029419638 0.038262498 -0.070564225 0.009561593
-0.052842148 -0.06529383 0.032315273 -0.07808167 0.07301804 -0.07122193 0.083095096 0.06890465
0.0029513657 -0.055069353 -0.008350738 -0.024055582 -0.07981316 -0.0121009145 0.06126663 -0.03510533
0.046477403 -0.074593365 -0.042589646 -0.077746 -0.07819269 -0.05143129 -0.03910402 0.06395275
-0.06758706 0.0046820124 -0.060415205 0.07495622 -0.014668833 -0.040585726 0.0062504257 -0.0785118
0.06474841 -0.029341388 -0.013904475 -0.08842635 0.08601427 -0.0055055264 -0.07367476 0.023459766
0.0646434 0.037030432 0.027452895 0.049932614 -0.013242764 0.084962994 -0.085203245 -0.057320897
-0.044400465 -0.06112801 -0.036017977 -0.07634273 -0.046041608 -0.040996276 0.066841416 0.082165755
-0.021441452 -0.076403886 -0.011410722 0.08407769 0.012624517 -0.01954114 0.060265794 -0.058327585
